model/mlp_model.pth (torch, 135655 bytes, 6 tensors)

layer1.weight f4 [64, 367]
0	0x3d300e33	0.04298229
1	0x3da47f04	0.08032039
2	0x3d28f30f	0.041247424
3	0x3d41f302	0.04735089
4	0x3d42b2a0	0.04753363
5	0x3cb7a167	0.02241583
6	0xbcddbc72	-0.027067397
7	0x3cb4fb8b	0.022092601
8	0xbca34ffe	-0.019935604
9	0x3d29322f	0.041307624
10	0xba214dfc	-0.0006153283
11	0x3d5c4cdc	0.053784236
12	0x3ccfde52	0.025374565
13	0xbb931a70	-0.0044892356
14	0x3c0cb250	0.008587435
15	0xbd114d4e	-0.035474114
16	0xbc9a3d1e	-0.018827971
17	0x3d4addfc	0.049528107
18	0xbcc2fc06	-0.023801815
19	0xbd00ac10	-0.03141409
20	0xbd2983c1	-0.041385416
21	0x3e034a3f	0.12821291
22	0x3c1eca14	0.009691734
23	0x3cdabe44	0.026702054
24	0xbcaa225d	-0.020768339
25	0x3ca5c329	0.020234661
26	0x3cf51ed0	0.02992192
27	0x3d251e2e	0.040311985
28	0x3d81b220	0.06332803
29	0x3d029a81	0.031885628
30	0xbd19472e	-0.037421398
31	0x3d145046	0.036209367
32	0x3adcd0bb	0.0016846874
33	0x3af31a67	0.0018547297
34	0x3d273ab8	0.040827483
35	0xbcc18aaf	-0.0236257
36	0xbd4f0d86	-0.050550006
37	0xbcaecf15	-0.021338979
38	0x3d2f36ec	0.042776987
39	0xbc9ca1a5	-0.019120047
40	0x3ce5116a	0.027962405
41	0x39c4a236	0.0003750489
42	0x3d30f134	0.04319878
43	0xbd30faa8	-0.043207794
44	0xb9dce703	-0.00042133787
45	0xbc9c952c	-0.0191141
46	0x3bdafa26	0.006682652
47	0x3d1bd8d6	0.038048588
48	0x3cab3e79	0.020903813
49	0xbd3dcb28	-0.046336323
50	0x3d24fd4c	0.040280625
51	0x3d3d1c8e	0.04616981
52	0xbceda1d2	-0.029007826
53	0x3cbc57c1	0.022991063
54	0x3d1c16d8	0.038107723
55	0x3db39f3d	0.08770607
56	0xb9de83f8	-0.00042441464
57	0xbbb0198a	-0.0053741382
58	0xbcdddcbd	-0.027082795
59	0x3dafed4c	0.08590183
60	0xbd46e79a	-0.048560716
61	0xbca6eaa6	-0.020375561
62	0x3c7b7f5b	0.015350188
63	0x3d834f34	0.06411591
64	0x3d9a1b21	0.07524706
65	0x3cf37e4b	0.029723307
66	0xbc261cf5	-0.01013874
67	0xbcda17ba	-0.026622642
68	0x3d316b73	0.043315362
69	0xbb2d2838	-0.0026421677
70	0x3d2939e9	0.041314993
71	0x3dcb5be4	0.09929636
72	0x3a5967ec	0.00082933786
73	0xbd0fb89e	-0.035088174
74	0xbd12f26d	-0.035875726
75	0x3d48dd75	0.049039323
76	0xbc3a1395	-0.011357208
77	0x3c333a4d	0.010939193
78	0x3d3f2795	0.046668608
79	0xbcb694f9	-0.022287833
80	0x3d563e04	0.052305236
81	0xbd403692	-0.046927042
82	0xbcf90202	-0.030396465
83	0x3d46782d	0.048454452
84	0x3d28a7d8	0.041175693
85	0x3dc001e1	0.093753584
86	0xbd0172ff	-0.03160381
87	0xbb1941a8	-0.0023385081
88	0x3d20eb11	0.039286677
89	0xbc9e5008	-0.019325271
90	0xbcd4841a	-0.025941897
91	0xbbf96d38	-0.007611897
92	0x3cded14f	0.027199415
93	0xbbd55e3c	-0.0065114778
94	0x3d76580e	0.06014257
95	0xbc2e37f0	-0.010633454
96	0x3d7b0fa0	0.061294198
97	0xbce150be	-0.027504321
98	0x3d3717bc	0.04470037
99	0x3c768337	0.0150459325
100	0x3d973aec	0.07384285
101	0xbac73066	-0.0015196919
102	0xbae96f7b	-0.0017809713
103	0x3d2eaa10	0.042642653
104	0x3d60945c	0.054828987
105	0x3b696546	0.0035613342
106	0x3c0e26fa	0.008676285
107	0xbd6cd62c	-0.057821438
108	0x3d0d85bc	0.034551367
109	0xbd05855f	-0.032597896
110	0x3d92347b	0.07138916
111	0x3d301612	0.042989798
112	0xbbf1b23b	-0.007375983
113	0x3da6bd96	0.081416294
114	0xbbc483cb	-0.0059971563
115	0x3cbb78a0	0.022884667
116	0xbcdd6162	-0.027023975
117	0xbd41e81a	-0.04734049
118	0xbca6113d	-0.020271892
119	0xbcf9254f	-0.030413298
120	0xbc0a7338	-0.008450322
121	0x3cc467ad	0.023975218
122	0xbd4ecbf5	-0.050487477
123	0x3d227892	0.039665766
124	0x388e8636	6.7960864e-05
125	0xbc59a191	-0.013283149
126	0xbc9b98a8	-0.01899369
127	0x3d098739	0.033576224
128	0x3d2a1255	0.04152139
129	0x3cab09bf	0.02087867
130	0xbd0165f8	-0.031591386
131	0x3cdd10b6	0.026985507
132	0xbc16dd17	-0.009207985
133	0x3d1e15b9	0.038594935
134	0xbd23f72f	-0.040030655
135	0xbd6e3317	-0.05815419
136	0xbba75b95	-0.005107353
137	0x3ce4884c	0.027897023
138	0xbc9ae847	-0.018909587
139	0xbce499ec	-0.027905427
140	0x3bb734bc	0.005591003
141	0xbcf7143d	-0.030161018
142	0x3c8469ab	0.016163668
143	0x3b8bbc72	0.004264408
144	0x3d44d1f6	0.048051797
145	0x3d51cb75	0.051219422
146	0x3d54f9e8	0.05199614
147	0xbdb92427	-0.09040099
148	0x395373ca	0.00020165663
149	0x3d84cd5a	0.0648448
150	0x3c574964	0.013140056
151	0x3d053918	0.032525152
152	0xbcebafa6	-0.02877028
153	0xbd0690f6	-0.03285309
154	0x3d4aee14	0.049543455
155	0x3d170496	0.036869608
156	0x3d7b49a1	0.061349515
157	0x3d0c8564	0.0343069
158	0x3d6e4851	0.058174435
159	0xbb380ca9	-0.0028083718
160	0xbc6b1b13	-0.014349717
161	0xbd0c6d70	-0.034284055
162	0xbd1197a8	-0.03554502
163	0x3d3dd5f8	0.046346635
164	0xbd036d6d	-0.03208678
165	0x3d4a3234	0.049364284
166	0x3cedc568	0.029024795
167	0x3dad6326	0.08466177
168	0x3d42093a	0.04737208
169	0xbd0ee5fa	-0.03488729
170	0x3d0b7d5c	0.0340551
171	0x3d4cf878	0.050041646
172	0x3d1ea627	0.038732674
173	0x3c7ecda9	0.015551963
174	0xbc1549c2	-0.0091118235
175	0x3c9fd191	0.019509109
176	0x3d450f36	0.04811021
177	0x3bad1096	0.005281518
178	0x3d573e00	0.052549362
179	0xbbfb383b	-0.0076666153
180	0x3d22ef16	0.03977879
181	0x3c1eaae9	0.009684303
182	0x3d06440e	0.032779746
183	0xbd5e4c17	-0.054271784
184	0x3d173cc6	0.036923192
185	0xbbe3b82f	-0.0069494466
186	0x3d046baf	0.032329258
187	0x3cbd8c2a	0.023138124
188	0xbacd2d9e	-0.0015653854
189	0xbab4f556	-0.0013806026
190	0xbd5b389f	-0.053520795
191	0x3d09ac6d	0.033611704
192	0x3c06e54d	0.0082333805
193	0xbcce56bd	-0.025187844
194	0xbbdd49b3	-0.0067531704
195	0x3a6f31c8	0.00091245444
196	0x3bf58d15	0.007493625
197	0x3ce00898	0.027347848
198	0x3d53dc56	0.0517238
199	0x3d48f38b	0.049060386
200	0xbcd61e68	-0.026137546
201	0x3cac5876	0.021038275
202	0x3c86c037	0.016449077
203	0x3d334443	0.04376627
204	0x3d0952af	0.03352612
205	0x3d1526f6	0.03641411
206	0x3cba10a0	0.022713006
207	0xbcf3077a	-0.029666651
208	0x3d6c21f8	0.057649583
209	0x3d265d88	0.040616542
210	0xbca1e491	-0.01976231
211	0x3d4561ba	0.048188902
212	0xbca28636	-0.019839387
213	0x3b7cd31c	0.003857798
214	0x3cb2e222	0.021836344
215	0xbafd70f2	-0.0019336028
216	0x3d9709bc	0.073749036
217	0x3b8f2ccc	0.004369354
218	0x3c8885c1	0.016665341
219	0xbc91e522	-0.017809454
220	0xbd37b2f2	-0.04484839
221	0xbd4d0fa7	-0.050063755
222	0xbd0d699d	-0.03452455
223	0x3cd288b7	0.025699956
224	0x3c7e5ab4	0.015524555
225	0xbd0df4d4	-0.034657314
226	0x3d537fbe	0.051635496
227	0xbe18bdce	-0.14916155
228	0x3d22be22	0.039732106
229	0xbcf2c520	-0.029635012
230	0x3cf76243	0.030198222
231	0xbcb711c7	-0.022347344
232	0x3d6eb229	0.058275376
233	0x3d6a35c2	0.057180174
234	0x3be7165c	0.007052226
235	0x3bbaffd1	0.005706765
236	0xbcf60a1b	-0.030034116
237	0x3c634873	0.013872254
238	0xbd3b8d66	-0.045789145
239	0x3d6edb1f	0.05831444
240	0xbc37405c	-0.011184778
241	0xbcb1e0bb	-0.021713605
242	0xbccf382c	-0.02529534
243	0x3d8709eb	0.065936886
244	0x3ba35a26	0.0049851118
245	0xbc447bd9	-0.011992418
246	0xbca6693e	-0.020313855
247	0xbc449728	-0.011998929
248	0x3c3e0b7c	0.011599418
249	0x3d9ee688	0.07758814
250	0xbd25c0fb	-0.040467244
251	0x3aa15db9	0.0012311257
252	0xbcb641c0	-0.022248149
253	0x3d333aa2	0.04375709
254	0x3b75a93e	0.003748491
255	0xbd126f2d	-0.035750557

layer1.bias f4 [64]
0	0x3b21e5c7	0.0024703608
1	0xbc75677f	-0.014978289
2	0x3d8f40ca	0.069947794
3	0x3d92f68d	0.07175932
4	0x3d48e478	0.04904601
5	0x3c4322a1	0.011910112
6	0x3c0166a9	0.007898011
7	0x3bcde9bf	0.006283968
8	0xbb89d836	-0.0042066826
9	0x3d9b6586	0.075877234
10	0x3cb2663c	0.021777265
11	0x3bd00893	0.0063486784
12	0xbd131713	-0.035910677
13	0x3d2cfd38	0.042233676
14	0x3bae4a0f	0.005318887
15	0x3be04097	0.006843637
16	0x3d2d6d1c	0.042340383
17	0xba61a11e	-0.0008607077
18	0x3d2bfb10	0.04198748
19	0xb98100e8	-0.00024605473
20	0x3d9ef0b1	0.07760752
21	0x3ad3e71a	0.0016166896
22	0xbbc79b6b	-0.0060915253
23	0x3d21ac64	0.039471045
24	0x3c4ecb3a	0.012621695
25	0x3c15adeb	0.009135704
26	0x3c15f8b0	0.00915353
27	0xbd9a6c18	-0.075401485
28	0xbc8dff88	-0.01733376
29	0xbc14e8f6	-0.009088745
30	0xbcf3d4ac	-0.029764496
31	0x3d2bfc39	0.041988585
32	0xbcb30607	-0.02185346
33	0x3d912608	0.07087332
34	0x3c70e710	0.014703527
35	0x3d73f9cb	0.059564393
36	0x3d035901	0.032067303
37	0x3d8612c8	0.06546551
38	0xbc8d9c24	-0.017286368
39	0xbcd9b288	-0.026574388
40	0x3d4867ec	0.048927233
41	0x3d4f3075	0.05058332
42	0x3d829edf	0.063779585
43	0xbbc4b01c	-0.006002439
44	0x3d00135b	0.03126846
45	0x3d9fd0e0	0.078035116
46	0x3d8203f9	0.06348414
47	0x3ca0d35b	0.019632032
48	0x3d551d91	0.05203015
49	0x3a6a7b68	0.00089447806
50	0x3e06e066	0.13171539
51	0x3d0ac1ee	0.033876352
52	0x3b4dee54	0.0031422572
53	0x3d982c80	0.07430363
54	0xba2535bd	-0.0006302258
55	0xbd70e1e4	-0.058809176
56	0x3d8a1048	0.06741387
57	0x3cc7674b	0.024341246
58	0x3c4fea6d	0.012690169
59	0xbcb30642	-0.02185357
60	0xbd839c9d	-0.06426356
61	0x3b35a844	0.0027718702
62	0xbcae2db5	-0.02126203
63	0x3ba56c00	0.005048275

layer2.weight f4 [32, 64]
0	0x3dabaa67	0.08382111
1	0x3b7e77ce	0.0038828733
2	0x3e1eaa9e	0.15494773
3	0x3bf25808	0.007395748
4	0xbc67610c	-0.014122259
5	0x3e22d1f7	0.15900408
6	0x3decffe6	0.11572246
7	0x3e219265	0.15778501
8	0x3e64571e	0.22298858
9	0x3ddccbd3	0.10781064
10	0x3d8e5fbf	0.06951856
11	0xbdd803e9	-0.10547621
12	0x3dfca77a	0.12336631
13	0x3dbd9f02	0.09258844
14	0x3d6b2923	0.057412278
15	0x3ddbf37d	0.10739801
16	0xbe275107	-0.16339503
17	0xbb99dde7	-0.0046956423
18	0xbd9516fa	-0.07279773
19	0x3dc1535e	0.09439729
20	0x3d8ea954	0.069658905
21	0xbd2ada36	-0.04171201
22	0xbdbe5e44	-0.092953235
23	0x3e1a65af	0.15077852
24	0x3da065e5	0.07831935
25	0xbcb3701f	-0.02190405
26	0x3d0f6b4e	0.035014443
27	0xbcc2bc76	-0.023771506
28	0xbd2713bc	-0.040790305
29	0x3d6afbcc	0.05736904
30	0x3e40b1fb	0.18817894
31	0x3d97e93d	0.074175335
32	0x3e67bd92	0.22630909
33	0x3e3d099f	0.18460701
34	0x3b5d9753	0.003381212
35	0xbce57108	-0.028007999
36	0x3dd59a6d	0.10429845
37	0x3e09f3b8	0.13471878
38	0x3d9d3aba	0.07677217
39	0x3d0047be	0.03131842
40	0xbc17d1fc	-0.009266373
41	0x3b49e047	0.0030803846
42	0x3cb1e9f9	0.021718012
43	0x3dcbb28a	0.09946163
44	0xbdd33a55	-0.1031386
45	0x3e332dde	0.17497966
46	0x3d9806cc	0.074231714
47	0x3e7fab8b	0.24967782
48	0x3c217189	0.009853729
49	0x3db6d799	0.08927841
50	0xbd3e209f	-0.04641783
51	0x3ca82d9e	0.020529564
52	0x3da04740	0.0782609
53	0x3e50109f	0.2031884
54	0xbd1e5ed3	-0.03866465
55	0xbda30095	-0.079590954
56	0x3cd1551e	0.025553282
57	0x3d87c745	0.066298045
58	0x3e3fc9e4	0.18729359
59	0xbc0a118c	-0.008427035
60	0xbd9b81b1	-0.07593096
61	0x3d8f881d	0.070083834
62	0x3da38dcb	0.07986029
63	0x3e2324b4	0.1593197
64	0x3d147e86	0.036253475
65	0xbd0d2ff6	-0.034469567
66	0xbd56a946	-0.052407525
67	0xbc76b60d	-0.015058053
68	0x3cf7bc76	0.030241232
69	0x3d284189	0.041078124
70	0x3c85bc19	0.016325044
71	0x3d86e3b4	0.065864
72	0x3da0711b	0.07834073
73	0x3d656fef	0.05601495
74	0xbc677845	-0.014127796
75	0xbe03e89b	-0.128817
76	0x3dd4b8e9	0.10386831
77	0xbdb6a325	-0.08917836
78	0x3d30e909	0.04319099
79	0xbdea7ad4	-0.11449209
80	0x3d5a2c76	0.053265058
81	0xbce1db75	-0.027570466
82	0x3db8c7a6	0.09022455
83	0xbdd5b949	-0.10435731
84	0x3dcae0f3	0.09906187
85	0x3d352df5	0.04423328
86	0xbddb9664	-0.10722044
87	0x3cfa2593	0.030535495
88	0xbd97e806	-0.07417302
89	0xbd9196d1	-0.07108844
90	0x3b5e709c	0.0033941632
91	0x3da34606	0.0797234
92	0x3dc0e752	0.09419121
93	0x3dd7b098	0.105317295
94	0x3cbb0057	0.02282731
95	0xbd3b80b4	-0.045777038
96	0xbcb8457f	-0.022494076
97	0xbd924432	-0.071419135
98	0xbdf2f3ab	-0.11862882
99	0x3dada36f	0.08478438
100	0xbcff7415	-0.031183282
101	0xbd34924f	-0.044084843
102	0x3cf9bf66	0.030486774
103	0x3def7deb	0.11693939
104	0xbdaaf20c	-0.08346948
105	0xbd908a3c	-0.07057616
106	0xbe0441cb	-0.12915723
107	0x3caa6c33	0.020803547
108	0xbdc048f5	-0.093889154
109	0x3cf4c8d1	0.029880913
110	0x3d49941e	0.04921352
111	0xbbba09ae	-0.0056774234
112	0xbb4a5f01	-0.003087938
113	0x3d16a8ce	0.03678208
114	0xbdad71b2	-0.08468951
115	0x3d193351	0.037402455
116	0xbdba5d65	-0.09099845
117	0xbd697c38	-0.05700323
118	0xbd856cb1	-0.06514872
119	0xbce3f888	-0.02782847
120	0x3dc1d838	0.094650686
121	0xbd2dd46b	-0.042438906
122	0xbe01b7ef	-0.12667821
123	0x3d2d8d90	0.042371333
124	0x3d7f596b	0.062341135
125	0xbc69c297	-0.014267585
126	0xbe09d232	-0.1345909
127	0x3d21cbbc	0.039500937
128	0xbd1909f9	-0.037363026
129	0x3da99222	0.08279826
130	0x3d86bf04	0.06579402
131	0x3bc29600	0.0059382915
132	0x3dad76ee	0.0846995
133	0xbd88ecaa	-0.06685765
134	0xbe0878ec	-0.13327378
135	0xbddd1d58	-0.107966125
136	0xbcec3d15	-0.02883772
137	0x3dab7cd7	0.08373421
138	0xbd12da28	-0.03585258
139	0x3dc6442d	0.09680972
140	0x3c4f51da	0.012653792
141	0x3dc03252	0.09384598
142	0x3d92415b	0.07141372
143	0x3d3d5e62	0.04623259
144	0xbded4594	-0.115855366
145	0x3baf82a4	0.0053561497
146	0x3d4c547f	0.04988527
147	0xbdf7fa4a	-0.12108286
148	0x3dc56611	0.09638608
149	0x3c04ff5f	0.008117526
150	0x3cfd7e53	0.030944025
151	0x3d7f3405	0.06230547
152	0x3d3600b3	0.04443426
153	0xbdfbf424	-0.123024255
154	0xbb2758d1	-0.0025535116
155	0xbde92554	-0.11384073
156	0x3d87d814	0.066330105
157	0xbdde32dd	-0.10849545
158	0xbca50e54	-0.020148434
159	0x3ca5f9d4	0.020260729
160	0xbda1e420	-0.079048395
161	0x3da7ce33	0.08193626
162	0x3da85331	0.082189925
163	0xbe0d9e55	-0.1382993
164	0xbdbacd47	-0.09121185
165	0x3d634eb9	0.055494998
166	0xbdeeee25	-0.11666516
167	0x3d6733e2	0.056445964
168	0xbe1ea44d	-0.15492363
169	0xbd33351e	-0.04375183
170	0xbdde2167	-0.10846215
171	0xbe100c6f	-0.14067243
172	0x3cb7d7f6	0.022441845
173	0x3d33d219	0.043901537
174	0x3d1aa99d	0.037759412
175	0xbdbb69e1	-0.09151054
176	0xbc97907d	-0.018501515
177	0xbc60e755	-0.013727029
178	0xbdcca12d	-0.09991679
179	0x3d10c00e	0.035339408
180	0xbd1263a6	-0.035739563
181	0xbe02642e	-0.12733528
182	0xbdce530f	-0.10074436
183	0x3e0b3633	0.13594894
184	0xbde81bc9	-0.113334246
185	0xbd5b53f9	-0.05354688
186	0xbc982155	-0.018570581
187	0x3cc65331	0.02420959
188	0xbd542369	-0.051791582
189	0xbdaf886b	-0.085709415
190	0xbd07228b	-0.032991927
191	0x3d59d864	0.05318488
192	0xbd2919b1	-0.041284267
193	0x3e0b9016	0.13629183
194	0x3d498e0b	0.04920773
195	0x3da44be0	0.080222845
196	0xbd296f51	-0.041365925
197	0x3d5ba9d9	0.053628776
198	0xbca5f635	-0.020259002
199	0x3c491876	0.012273898
200	0x3e480a6f	0.1953523
201	0x3d4eb9cc	0.05047016
202	0xbc91ee47	-0.017813815
203	0xbdbdf0ee	-0.09274469
204	0x3d6adad1	0.057337586
205	0x3c0d6107	0.00862909
206	0x3e5fcc13	0.21855192
207	0x3d428afe	0.047495835
208	0xbca7a7f5	-0.02046583
209	0xbe3a4a73	-0.18192463
210	0x3e12dfca	0.14343181
211	0x3e06280c	0.13101214
212	0x3e192937	0.14957128
213	0x3c66d545	0.014088933
214	0x3d3a2d47	0.045453336
215	0x3e3b4899	0.18289413
216	0x3e157237	0.14594351
217	0x3cb61849	0.022228377
218	0x3dc7a0df	0.097474806
219	0x3e554623	0.20827536
220	0x3dda976c	0.10673413
221	0x3b1c1fcb	0.002382266
222	0x3df8b26d	0.12143407
223	0x3d748830	0.05970019
224	0xba0e5e7d	-0.000543095
225	0x3d6b6b25	0.057475228
226	0x3c874a2c	0.01651486
227	0x3d9586b7	0.073010854
228	0x3da50694	0.08057895
229	0x3db77352	0.089575425
230	0x3e2f3444	0.17109782
231	0x3e046269	0.12928165
232	0x3dcaae76	0.09896557
233	0x3d458595	0.048223097
234	0x3db79a9a	0.08965035
235	0x3db7442a	0.08948548
236	0xbdd75064	-0.1051338
237	0x3c0f3fce	0.00874324
238	0x3c4fa924	0.012674604
239	0x3e02b0b2	0.12762716
240	0xbdbba78d	-0.09162817
241	0x3e1384e1	0.14406158
242	0x3da25a12	0.07927336
243	0xbe030242	-0.1279383
244	0x3e4edffe	0.20202634
245	0x3dea4a19	0.11439914
246	0xbb5f1457	-0.0034039223
247	0xbe156d36	-0.14592442
248	0x3e1cff4b	0.15331762
249	0xbd2aa266	-0.04165878
250	0x3d512499	0.051060293
251	0x3dba1d25	0.0908759
252	0x3dd97b26	0.10619192
253	0x3e40bb64	0.18821484
254	0x3bffeca9	0.0078101945
255	0x3e2a27ab	0.16616695

layer2.bias f4 [32]
0	0xbd600b8c	-0.054698512
1	0xba620b92	-0.000862294
2	0xbe061478	-0.13093746
3	0xbbda2102	-0.006656767
4	0x3d5e8c38	0.05433294
5	0xbdaf8905	-0.08571056
6	0xbcc11bcb	-0.023572823
7	0x3e017a49	0.12644304
8	0x3de35a86	0.1110125
9	0xbd9c957c	-0.076456994
10	0x3dff1250	0.12454665
11	0x3d9bc795	0.076064266
12	0xbd04cbf9	-0.032421086
13	0xbd824cde	-0.063623175
14	0xbcbb11de	-0.022835668
15	0xbd0ea872	-0.03482861
16	0xbd946302	-0.07245447
17	0x3d40045d	0.04687916
18	0x3c7b8303	0.01535106
19	0xbd5a6e3f	-0.053327795
20	0x3e07ab22	0.13248876
21	0xbd9d7bdd	-0.07689641
22	0x3da2e2e3	0.079534315
23	0x3deecc9d	0.11660121
24	0x3de3e6fd	0.11128042
25	0x3de55217	0.11197298
26	0x3e3a58ea	0.1819798
27	0x3c465aab	0.012106578
28	0x3e17584f	0.14779781
29	0x3ceeaca2	0.029135052
30	0x3d1c277b	0.03812359
31	0x3dfa2ead	0.12215934

output.weight f4 [2, 32]
0	0x3e995f9a	0.2995575
1	0xbdf269d6	-0.11836593
2	0xbd30b0f2	-0.0431375
3	0x3e255169	0.16144337
4	0x3cf946ed	0.030429328
5	0x3d9a728c	0.07541379
6	0xbdf95d15	-0.12175957
7	0x3e2a67d5	0.16641171
8	0xbe63590b	-0.22201936
9	0x3e99cc0e	0.30038494
10	0xbd733400	-0.059375763
11	0x3e760914	0.240269
12	0x3d576705	0.05258848
13	0x3c0c9f3a	0.008582884
14	0xbe97e5c8	-0.29667497
15	0x3e966416	0.29373235
16	0xbc9fd173	-0.019509053
17	0xbe3ecd42	-0.18632987
18	0x3e1ff7a5	0.15621813
19	0x3e559eef	0.2086141
20	0xbe82c261	-0.25538924
21	0x3e4af98b	0.19821756
22	0x3e700bb6	0.23441967
23	0x3ca76a1b	0.020436337
24	0xbe63e627	-0.22255765
25	0xbe87aab2	-0.26497418
26	0xbea384b8	-0.31937194
27	0xbe095341	-0.13410665
28	0x3e3b4bbc	0.18290609
29	0xbcd32c6d	-0.02577802
30	0xbdbb9730	-0.09159696
31	0x3e52d9e9	0.20590939
32	0xbea51435	-0.3224198
33	0x3d6e3417	0.058155145
34	0x3e0a6e97	0.13518749
35	0xbdc95714	-0.09831062
36	0x3e2fabfa	0.17155448
37	0xbe805c89	-0.250706
38	0x3c63f278	0.0139127895
39	0xbe8fea61	-0.28108504
40	0x3e0740f7	0.13208376
41	0xbe927742	-0.28606611
42	0x3e201aa2	0.1563516
43	0x3d229dae	0.039701156
44	0x3d44bf49	0.048033986
45	0xbe6c9ef4	-0.23107511
46	0x3e9f1831	0.31073144
47	0xbc381b86	-0.011237031
48	0x3ca5d12a	0.020241339
49	0x3e10259c	0.14076847
50	0xbe067fa0	-0.13134623
51	0xbe994b38	-0.299402
52	0x3e744167	0.23853074
53	0xbe2588d4	-0.16165477
54	0xbe74a3e5	-0.23890646
55	0x3e4ed727	0.20199262
56	0x3e7009ab	0.23441188
57	0x3ea670d9	0.3250797
58	0x3e74357a	0.23848525
59	0x3da35e90	0.07977021
60	0xbe28f93c	-0.16501325
61	0xbca33833	-0.019924259
62	0x3e2ea72d	0.1705596
63	0xbe57fae6	-0.21091804

output.bias f4 [2]
0	0x3dd51376	0.104041025
1	0x3e097bf4	0.1342619
