model/mlp_model.pth (torch, 135847 bytes, 6 tensors)

layer1.weight f4 [64, 366]
00000000: 3d2c b03c 6767 903d 4803 8abd 2866 24bd
00000010: 6fba 83bd 968d 3dbd be38 0dbc 27dc 55bd
00000020: a74c 9cbd ac64 40bd 6f98 cbbd 50c1 58bd
00000030: adf3 c13b e17b c5bd d030 333d d9c7 23bd
00000040: 5b66 04bc 087e 99bd 7416 5abd b110 c8bc
00000050: 2e30 7dbb 31c5 a33d 8dc6 0e3d ee3b 123d
00000060: 7a63 92bd ca6d dd3c 6e1b 003a f355 ebbc
00000070: 8b41 113c ef11 5bbc f1d9 e63c 0104 e63c
00000080: 2a23 6cbd 1cc9 233d a440 703d e730 abbc
00000090: 94fc 2cbd b7e8 493c 234f 45bd 74ba 673d
000000a0: 517a 81bd d718 7cbd d91b d93c 7c3e 333d
000000b0: 8870 b73d 1ba6 123d ebbd 90bb e53f 6f3d
000000c0: 8733 91bd 2afb 633d 0864 023c 3f33 6abc
000000d0: 4365 06bd 173b c83c 84d2 683d ce18 79bc
000000e0: 619b 97bc bdab 8d3d 4320 e6ba 67b2 a63b
000000f0: be52 be3c e6dd 633d 03b8 6f3c eba3 0d3d
00000100: 5a43 8d3d f334 973d a365 89bd a051 aabd
00000110: 43af 80bd fb6d 7f3d 7538 27bd 0db4 e73c
00000120: 3436 83bd 9fc7 17bd 4724 cc3a c1eb 863c
00000130: 2f68 d83c 73d2 c9bc 23d6 9ebd 67af 5a3d
00000140: facc e5bb a691 eab8 befd 8c3c 39df 673a
00000150: 978a 013d f5cd ce3c d57d 09bd 443a 073d
00000160: 7a24 6cbd cf02 c9bc 8cd4 013c 2817 53bd
00000170: 7cc2 623d 9d00 293c 12be 993c eb14 41bd
00000180: b4a0 37bb ca53 383d 1686 d7bb 85ba e53c
00000190: 7273 c4bc a3a3 bd3c b29c 1fbd 95e0 893d
000001a0: 3fd0 bd3c 6bd5 d73c cde6 26bd 18d9 773d
000001b0: d52d 37bd 9ff2 6fbd 5a75 5e3d b4d7 d63c
000001c0: 3d05 3bbd 1902 bd3d 64b5 1bbd e8d6 84bc
000001d0: dcd9 bd3c d7ff cb3c 5d9b 343d 731d a1bd
000001e0: 262b 18bd 8bd8 da3c 5caa 71bd e469 08bd
000001f0: 0042 3c3d d037 0f3d 19c0 2dbc d16a 7dbd
00000200: 3576 1dbb f4b7 b8bc 2d31 d73c eb3a c3bc
00000210: b7d2 debd 72fd d23c 7c79 62bc 4e11 19bc
00000220: 9814 0cbd 267e a23d 1f5d 933c f640 6abd
00000230: 93dd 513c 7f80 0d3c 3d68 a73c 6132 dfbc
00000240: 4612 68bd 19b8 223b b824 49bd 270e 713d
00000250: 1e3e f6bb 95ee 183c 97d3 30bd 5e90 1f3c
00000260: 8f2f 1e3c ce9f 1c3d 71b1 5b3c d536 97bc
00000270: 6f2d 8cbd e86b 1ebd 65a0 07bc 9681 6cbd
00000280: 5c92 c53b e839 1cbd b6f4 3ebd 2afa dd3b
00000290: 6567 f83b 5dd2 a63c 26dd 77bd 934f a8bb
000002a0: faa9 4bbd d851 333b fc33 f93c 5f13 17bd
000002b0: 8b62 5abd aa60 3dbc 9fb8 d3bc 44c1 e0bc
000002c0: 18b8 71bd 2a0b 78bd 8718 5a3d 37b8 42bd
000002d0: 0ef3 c33c d09e 9a3d e4dc 283d 7a6e 2dbd
000002e0: d32d 893b 63e0 dd39 6a7d e23c 5101 593d
000002f0: 622d 89bd 38fb abbc 9a6c 8aba 3727 8a3c
00000300: 6c86 f93c c6fe 023d 8c91 8d39 fa27 a8bd
00000310: 832a 9abd 0ff8 643d cf82 013c b4a2 5f3b
00000320: 5912 95bc 8208 29bd 49e0 abbc beb5 443d
00000330: 747b 28bc 9c15 37bd a352 c63c 8453 993d
00000340: ade1 cfbb b9a2 e13c 2c21 b2bc 14a7 80bd
00000350: ef1e 46bd 4eec 28bd e118 afbd 0dcb 903d
00000360: cec8 6cbc 7be0 673d 9113 f1bc d9c3 72bb
00000370: 610b 22bd 110d ae3c 35ef 8abd 1e64 26bc
00000380: 9d3f 783d 78a3 61bc 5e40 97ba 4ccb 61bd
00000390: 1e3c c83c 4318 d03d 137a ed3b 64d5 453d
000003a0: 43dd 9f3d 1534 453a e7ef 1dbd cf77 85bd
000003b0: 15bd ce3b 235e 60bd 25ec 64bd aee6 83bd
000003c0: a60e 023d 2c2b 33bc abe6 1c3d 1591 f63b
000003d0: 7d77 75bd eb88 b43c 9856 cdbc 1c2a b33c
000003e0: 8a35 6abd bb2b cdba b0be bebd a97a 66bd
000003f0: 536d a9bc 39c1 d43c 8261 ebbb 8ac6 d03c
0.02150547 0.070509724 -0.06738907 -0.040136486 -0.06432044 -0.046277605 -0.008619485 -0.052211907
-0.07631808 -0.04697101 -0.09941184 -0.052918732 0.005918941 -0.09642769 0.043747723 -0.03998551
-0.008081044 -0.07494742 -0.05324407 -0.024422022 -0.0038633454 0.07996596 0.03485732 0.035701685
-0.0714788 0.02702989 0.00048869 -0.028727507 0.008865724 -0.013370975 0.028180094 0.028078081
-0.057650723 0.039986715 0.058655396 -0.020897342 -0.042233065 0.01232355 -0.048171174 0.0565743
-0.06322158 -0.061547127 0.026502537 0.04376076 0.089570105 0.03580294 -0.0044171712 0.058410544
-0.07089906 0.05565945 0.00795842 -0.014294445 -0.032811414 0.024442239 0.05684139 -0.015203668
-0.018506708 0.06917522 -0.0017557222 0.005087185 0.023232814 0.05563154 0.014631274 0.034580152
0.06897612 0.07383146 -0.06708839 -0.0831635 -0.062834285 0.062360745 -0.040825326 0.028284097
-0.06406823 -0.037055608 0.0015574776 0.016469838 0.026416866 -0.024636483 -0.07755687 0.053389933
-0.0070129605 -0.00011185119 0.017210837 0.00088452135 0.03162631 0.025244692 -0.03356727 0.03301455
-0.057651974 -0.024537472 0.00792421 -0.051535755 0.055361256 0.010315088 0.01876739 -0.04713909
-0.002801937 0.045001782 -0.0065772636 0.028043041 -0.02398083 0.023149317 -0.038967796 0.06732289
0.023170589 0.026346883 -0.040747453 0.06050977 -0.044721443 -0.05858099 0.054311134 0.026225902
-0.045659292 0.09228916 -0.038014784 -0.016215757 0.023175173 0.024902267 0.04409348 -0.07866945
-0.037150525 0.026714584 -0.059000358 -0.03330411 0.04596138 0.034965336 -0.010604882 -0.061869446
-0.0024026756 -0.022548653 0.026268566 -0.023831805 -0.108800344 0.025755618 -0.013822909 -0.009342505
-0.034199327 0.07934217 0.01798874 -0.057190858 0.012809175 0.008636593 0.020435447 -0.027245702
-0.056658052 0.002482897 -0.049107283 0.058851387 -0.007514729 0.009334226 -0.043170538 0.00973901
0.009654894 0.03823834 0.013409005 -0.018458763 -0.06844603 -0.038677126 -0.008277987 -0.05774077
0.0060294103 -0.03814116 -0.046620093 0.0067742066 0.007580685 0.02036398 -0.060513638 -0.005136439
-0.04972265 0.0027362015 0.030420296 -0.036883708 -0.053316634 -0.011558691 -0.02584487 -0.027435906
-0.059013456 -0.060557522 0.053246047 -0.047538962 0.023919608 0.07549822 0.041226283 -0.042341687
0.004186371 0.00042319586 0.027647693 0.05297977 -0.06698109 -0.020993814 -0.001056093 0.016864402
0.030459605 0.031981252 0.00027002057 -0.0821075 -0.0752764 0.05590063 0.007904722 0.0034124078
-0.018197225 -0.04126788 -0.020980971 0.048024885 -0.01028334 -0.044698343 0.024209326 0.074866325
-0.0063440413 0.027543413 -0.021744333 -0.062818676 -0.048369344 -0.041240983 -0.08549667 0.07069979
-0.014452172 0.056610566 -0.029428275 -0.0037043004 -0.039561633 0.021246465 -0.06783906 -0.010155706
0.06060754 -0.013771884 -0.0011539569 -0.05512552 0.024442729 0.101608776 0.0072472184 0.04829921
0.07805874 0.00075227144 -0.038558867 -0.06516992 0.0063091614 -0.054777276 -0.055889267 -0.06440483
0.03175225 -0.010935586 0.03830592 0.0075246193 -0.059928406 0.022037944 -0.025065705 0.021870665
-0.057179965 -0.0015653291 -0.093137145 -0.05626932 -0.020682013 0.025971042 -0.0071832547 0.025485296

layer1.bias f4 [64]
00000000: 53d0 803b bda7 a63d 55de 813d 1e09 4f3d
00000010: 42d5 333d 79fd f8bc 3215 233d d513 a2bb
00000020: d46d 0e3d 0755 5c3d f4de 033d 521c c4bb
00000030: 3d2e 7fbd f6c1 793d 25a0 253c 416a 673c
00000040: 29f2 863d b6ca cd3c 70f9 913d 3c13 c83c
00000050: 31d9 63bb 8158 04bd 21dc f93c 4d43 e5ba
00000060: 84b8 263d 204a a63c 7b38 733c ce19 5d3b
00000070: f361 1ebc 60f1 8e3d 1050 563d 0ca2 403d
00000080: 978d c13c 32ef fc3c 6d7e 0bbb faeb 9e3b
00000090: e350 5739 be09 1abc 0309 f13b c336 963d
000000a0: 5290 9abd 3e6b 95bc f921 ebbb b36c 683d
000000b0: 5598 7c3d f0e9 613c 19fc 5b3d fa1c d63b
000000c0: 989b 8bbc d396 7a3d 8284 a93d 8b30 6abd
000000d0: a9b5 6ebc 4ad2 68bc 8fff ff3c f2bc 78bb
000000e0: 8f98 cf3d 7e59 673d 354c 0d3d 0203 093c
000000f0: 8b0a 17bd 119d 0ebd 3318 a2bb 846a 9f3d
0.003931084 0.08137462 0.063412346 0.050545804 0.04390455 -0.030394303 0.039815135 -0.004946212
0.03477271 0.053792026 0.032195047 -0.0059848214 -0.062299956 0.06097599 0.010108982 0.014124454
0.06589157 0.025121074 0.071276546 0.024423234 -0.0034766907 -0.032310966 0.030500473 -0.0017491371
0.04070331 0.020299017 0.014845009 0.0033737305 -0.009666908 0.069796324 0.052322447 0.04702954
0.023627086 0.030875776 -0.0021285072 0.004849908 0.0002053413 -0.009401737 0.0073558106 0.07334664
-0.07547058 -0.018239614 -0.0071756807 0.05674429 0.061668713 0.013788685 0.053707216 0.006534216
-0.017041966 0.061178993 0.08277227 -0.0571752 -0.014569678 -0.014210293 0.03124979 -0.0037954417
0.1013652 0.05648183 0.034496505 0.0083625335 -0.03687529 -0.03481776 -0.0049467324 0.07783988

layer2.weight f4 [32, 64]
00000000: 9588 30bc fca8 583c 3488 0ebe 5689 933d
00000010: c4dc adbc e614 693d 747c 05bd 7e3a 0a3d
00000020: 78e7 a03d a70f 2f3d de94 d53d f076 e43d
00000030: acd4 09be 7fa5 1dbc 5b55 73bd 6ac5 9ebd
00000040: b13d 5a3d 47f3 b33c 3eeb 8ebd f735 efbd
00000050: 7cc1 9b3d 414e 98bd 40d6 143d c0c4 f1bd
00000060: c69f cbbd d13f 163d 792d b53b 8b0a 803d
00000070: 9f3e d6bc 44ea c83d 8fb0 573d c7aa 08be
00000080: 0f1a 88bc efb9 a1bd 0a90 a33c bb33 d5bd
00000090: c5dd 133c 7458 243d 4389 02be ff97 423d
000000a0: 9577 a03d 517b d23d e7e4 88bd 8f0b 81bd
000000b0: 5325 7bbd eb46 bebd e2d3 a5bd 17ae c3bc
000000c0: bffa 1ebc cdbb 6e3d f704 7ebd 94c1 393d
000000d0: 07a7 d43c 2907 0ebe 894e 5fbd 9b16 e8bd
000000e0: 9f0b 7a3d 3ac1 e9bb 87ad 77bd 43cb 973d
000000f0: e12e 923c d6f4 bcbc ae4f 6cbd 66e1 273d
00000100: 45bb cfbb a883 f8bd 8424 fbbd eede d3bd
00000110: bb78 16bc bb1b d13c eff7 a43c fcbd 92bd
00000120: 9e1d 07bd 7e7e e03d 10c9 d93c 52f5 913d
00000130: b831 58bc 80aa 733c 8fd0 c13d db65 bb3b
00000140: 1790 e4bc 1492 b23d 4773 243d def7 5ebd
00000150: fb32 9d3d ea05 c0bd 42dc 773d 8d0d 893d
00000160: 92c0 fc3d b5dd a1bd fd2e 71bd 353c 73bd
00000170: 0d3a 27bd 8f39 b3bc aa2c 9abd 94bd 15be
00000180: 2b46 553c c1ad 773d 7ee6 68bd f63b 63bd
00000190: 2ca5 bd3d dd5a 7a3d 5ca9 09be 2991 ad3c
000001a0: 145a bf3d a078 8dbd 59f2 f83d 3c21 463d
000001b0: 904a ccbc 11bf 99bd 1080 25bd f812 db3c
000001c0: ac2e 933d 4567 e1bd 1001 4ebc 100d 19bd
000001d0: 3ca2 513d 5297 753c 0d81 11bc 99e3 b1bd
000001e0: e6dc 733d 40e6 7a3d 8876 ee3d 84f0 06bd
000001f0: 2469 4fbc 6f9c aebd 26a4 e73d 1565 ccbb
00000200: c978 80ba fb52 6fbd e3bf e13b 34f2 c8bd
00000210: 49e9 733c 67f9 dcbd 08e4 b53d 411f d1bd
00000220: d17d ddbc 29e2 c83c bc71 193d 510e 993d
00000230: 92c3 d43c 8e89 0cbe 8490 793b 2ab3 323e
00000240: 856c 14be d846 f0bd 0b1b edbc a5bd c13d
00000250: 8d95 0abe 9a03 243e aea8 e73d e3ad c5bd
00000260: 1f9c 1b3e 358d f13c efaf 46bd 52d4 d13d
00000270: fbc4 3bbc b10b fd3d 7393 afbd 00cc a63d
00000280: 3d84 15be 771d 693d 92ac e3bc 0651 0e3d
00000290: d5b2 dbbd 93f4 44be aff7 8b3d 721d 0dbd
000002a0: 8368 b43c cc4b ea3c f8ca c63d 13fc 32bd
000002b0: 0816 00be 94cc f13d fd03 b1bd fc28 df3d
000002c0: bd14 aabc 93fb 07be f79a 013c 42b9 583c
000002d0: 050f 983c fc69 c73d 1ef8 a7bc 1750 bebc
000002e0: 8acd e0bd 5592 023e 1193 1a3d 260a 2d3d
000002f0: 4881 bbbd 8031 0c3e eb7b 1a3e 7712 b23d
00000300: a675 b2bc 7b88 ed3b b718 703d ed2e 38bd
00000310: ed42 2e3e e908 d6bc c3f7 14be f580 833d
00000320: aecb 07be a20e 39bd b278 4cbc 0a84 38bd
00000330: f9f7 c33a cf39 5dbc f61b 2f3d 7dd4 25bd
00000340: 41a0 173e 4c4b a23d 4f53 9b3c 51d0 98bc
00000350: 45e6 013e 1aa0 873c c012 343e a6ac 993d
00000360: 14a9 8a3d e774 9dbd 759e 393e bff6 9fbd
00000370: 408b 25bd 78ed e23d 1adc e0ba cdaf 8f3d
00000380: 5805 0d3e 7e5d f43b f4fe c93d 5aaf 55bd
00000390: 7724 453e 157c 163d ded2 1f3e ef50 373e
000003a0: 7a37 89bd e73b 593d bf54 fdbd 9a87 24bd
000003b0: 9051 f33d cadf b13c 32af 23bd a06a e23d
000003c0: 3f87 87bd b2a0 d13d 7c29 ed3d b751 dd3c
000003d0: be6e 06bd 05bb 063d 51cc 983d 3cc2 11bc
000003e0: bddf 793d 1302 c03d 3745 823c 41ae b5bd
000003f0: 94ff 3c3e a2c8 01bd 30a8 663d 5e15 cc3d
-0.010774751 0.013223883 -0.13919145 0.07203929 -0.021223433 0.056904696 -0.03258939 0.03374719
0.07856649 0.042739537 0.10428785 0.11155498 -0.13460034 -0.009621977 -0.059407573 -0.077524975
0.05328149 0.02196659 -0.06978463 -0.11680215 0.076052636 -0.07436801 0.036337137 -0.11805105
-0.09942584 0.036681954 0.0055291024 0.06252011 -0.026152907 0.098103076 0.052658614 -0.13346396
-0.016613988 -0.07896792 0.019966144 -0.104102574 0.009025042 0.040123418 -0.12747674 0.047508236
0.078353085 0.10277427 -0.06684285 -0.06301033 -0.061314892 -0.0929087 -0.08097054 -0.023886723
-0.009703337 0.05828457 -0.062016454 0.045350626 0.025958551 -0.13869919 -0.054518256 -0.11332437
0.06104624 -0.00713363 -0.060468223 0.07411816 0.01784462 -0.023065966 -0.057693176 0.04098644
-0.006339463 -0.121344864 -0.12262824 -0.10345255 -0.009184058 0.025525918 0.020137755 -0.07165143
-0.03298723 0.109616265 0.026585132 0.07126869 -0.013195448 0.014872193 0.094636075 0.005718929
-0.027900739 0.087192684 0.040149 -0.054435603 0.076757394 -0.09376128 0.06051279 0.06692038
0.12341417 -0.079036154 -0.058882702 -0.05938359 -0.040826846 -0.021878032 -0.0752805 -0.146231
0.013017218 0.06046844 -0.05686044 -0.055477105 0.0926002 0.06112181 -0.13443512 0.021187382
0.09343353 -0.06907773 0.12155599 0.04837154 -0.024937898 -0.07507146 -0.040405333 0.026742443
0.07186636 -0.11006025 -0.0125734955 -0.037365973 0.05118011 0.014989691 -0.008880866 -0.08685989
0.059536837 0.06125474 0.11643702 -0.032944217 -0.012659345 -0.08525931 0.11310606 -0.006237636
-0.0009801622 -0.058428746 0.0068893298 -0.098118216 0.0148871625 -0.10789757 0.08881384 -0.10211039
-0.027037533 0.024521904 0.03746198 0.07473434 0.025972161 -0.13724348 0.0038080523 0.17451158
-0.14494522 -0.117322624 -0.02894356 0.0946 -0.13533612 0.16016999 0.1131147 -0.09652307
0.15196274 0.029486278 -0.048507627 0.10245575 -0.011460538 0.123557456 -0.085730456 0.08144379
-0.14601226 0.056912865 -0.027792249 0.03474524 -0.10727469 -0.19233923 0.06834351 -0.03445191
0.022022491 0.028600596 0.09706682 -0.043697428 -0.12508404 0.11806598 -0.08643339 0.10896489
-0.020761842 -0.13279562 0.007910482 0.013227763 0.01856185 0.09737012 -0.020504054 -0.02323155
-0.109767035 0.12751134 0.03773791 0.042246006 -0.09155518 0.13690758 0.15086333 0.08694928
-0.021784615 0.0072489358 0.05861732 -0.044966627 0.17017718 -0.026127296 -0.14547639 0.06421081
-0.13261291 -0.04517997 -0.012479948 -0.045047797 0.0014951221 -0.013502552 0.042751275 -0.040485848
0.14807226 0.07924518 0.018960623 -0.01865402 0.12685497 0.016555835 0.17585278 0.07503633
0.0677053 -0.07688313 0.18126853 -0.07810735 -0.040416002 0.1108045 -0.0017155439 0.07015953
0.1377157 0.007457434 0.098630816 -0.05216918 0.19252191 0.036739428 0.15607783 0.17901967
-0.067000344 0.053035643 -0.1236968 -0.040168382 0.11880791 0.021713156 -0.039962 0.11055493
-0.06617593 0.10235728 0.11580178 0.027016504 -0.032820456 0.0328932 0.07460845 -0.008896407
0.06100439 0.093753956 0.015902145 -0.08871127 0.1845687 -0.03168548 0.05631274 0.09965013

layer2.bias f4 [32]
00000000: 83bc cfbd 81ca dcbc fdd7 9e3c 0057 083e
00000010: c8e1 973d 1c0b d33d e49f 393d fe1d c0bd
00000020: 5c9d 77bd ea5f 143d ffaf 0d3e 85e0 50bc
00000030: d77f 653d 867e 5bbd e46f 013c a6ff d23d
00000040: 3a70 16bd c952 cb3d 3fa9 c53d acc3 ff3d
00000050: 8df9 bb3d 11d1 4abb ccdb 6bbd fc8e bbbd
00000060: e325 8dbb 7be0 e1ba d0b7 f43d 350d d6bd
00000070: 5b2f a13d 7cc8 2d3d 5842 5739 c2b5 9fbb
-0.10143378 -0.02695203 0.0193901 0.13314438 0.07416111 0.10304853 0.0453185 -0.093807206
-0.060452804 0.036224283 0.13836668 -0.012748842 0.05603012 -0.05358746 0.007900212 0.10302667
-0.03672812 0.099278994 0.09651422 0.12488493 0.091784574 -0.0030947367 -0.05758266 -0.091581315
-0.004307495 -0.0017233038 0.11949122 -0.10451738 0.078703605 0.042427525 0.00020528713 -0.004873962

output.weight f4 [2, 32]
00000000: 3f51 fbbd 0c34 883c b193 4cbe fb74 9bbd
00000010: 8376 143e 568c d3bd 7d4b 10be 5c95 ee3d
00000020: 684d fd3c bd40 d73d bda7 d6bd 9b97 6bbe
00000030: 2f92 613e 3ea2 353e de9b 553e c919 f0bd
00000040: 0fea c2bd ae89 5a3d d258 76bd 8d24 ce3d
00000050: fe70 5bbe 2338 673d 4432 233e 8de2 2abb
00000060: 164e df3d c639 423e c705 4d3e bd30 2fbe
00000070: 2286 1fbe f364 2d3d 3413 1bbd 4073 4cbd
00000080: 2e12 bf3d 84a9 b73d a324 3d3e 694b 41be
00000090: 23a7 65be 9d77 49be 4540 90bd 7724 073e
000000a0: ecaa fe3d ec4c bdbd cde5 623e 3ceb 0a3e
000000b0: 94f0 18be 2dd5 15be 9ddf b73c 9824 c63d
000000c0: f323 bfbd 58f5 a2bd 749a 23be f2ad b9bd
000000d0: 8dc3 843d fb69 4dbe f284 cebd d14e 2a3e
000000e0: 03b7 8dbd 8d4e 66be da9b 8cbd 91a0 a0bd
000000f0: b109 543e f025 06be 87b1 153e 9d4d 2f3e
-0.12271356 0.01662638 -0.19978215 -0.07590672 0.14498334 -0.10329501 -0.14091296 0.11649582
0.0309207 0.10510395 -0.10481212 -0.23007052 0.22028421 0.17737672 0.2086024 -0.11723668
-0.095172994 0.053353958 -0.0601433 0.10065565 -0.21429822 0.05645002 0.15937144 -0.0026074976
0.109035656 0.18967351 0.20021735 -0.17108436 -0.15578511 0.0423326 -0.03786011 -0.0499146
0.093296394 0.089678794 0.18471007 -0.18876423 -0.22427039 -0.19674535 -0.070435084 0.13197504
0.124349445 -0.09243187 0.22157975 0.13566297 -0.14935523 -0.14632101 0.022445494 0.096749485
-0.09333029 -0.07956952 -0.15976888 -0.090663806 0.06482611 -0.2005996 -0.10083951 0.16631629
-0.06919672 -0.22490902 -0.06865664 -0.078431256 0.20706822 -0.1310041 0.14618503 0.17119451

output.bias f4 [2]
00000000: 656f 213e d6ad c93d
0.1576515 0.0984761
