checkpoint_epoch_100.pth (torch, 225887 bytes, 12 tensors)

fc1.weight f4 [50, 365]
00000000: 9bdd e33c f891 84bd 7207 8cbc 5c29 6bbc
00000010: 5104 2f3c 1491 a93c 78e3 853c cff2 2bbc
00000020: a7e7 d2bc 58e4 323c 4021 9d3b d213 023d
00000030: 3328 c4bc a68f 7eba 9af5 373d b91a 6abd
00000040: 837f 60bb e6b1 803c dc1c 71bd aaea 0a3d
00000050: 5d33 b83c 084a dc3c 62c8 b0bc 8bc6 3cbd
00000060: c5ed 90bc 0026 51bd 6748 033c b352 bbbc
00000070: a90d 303c 0064 18b8 4b7d 3fbd 3f95 57bd
00000080: e4d3 16bd 58d3 9bbc 1615 ebbc a6f7 00bb
00000090: 7645 093c d2f6 14bd d806 453c 2fb7 9e3b
000000a0: 8709 dfbc 98f7 9bbc 2a4e 123d 605e c1ba
000000b0: ec7b 13bc 2a16 9abc b51a 7cbd 4845 2abd
000000c0: d7aa 03bd 0063 b7ba d4ba 603b e8db 4bbc
000000d0: 0e70 04bd b41a 04bc 5cc6 0a3c d4aa 433b
000000e0: 3a43 55bd f792 82bc 9bbc 44bc 6652 c43c
000000f0: d04f 19bd 501a 0f3d 9e5b 893c 2657 8ebc
00000100: 4ec7 67bd 2581 ef3b 8f2f 1cbc 55d0 053d
00000110: 729a 4b3d 3761 95bd 5fbb a1ba acfd e13c
00000120: c4d3 313d f8ad 32bd 9ffd 613c 34e8 be3c
00000130: fcf2 543d 50fe 5b3b b37d 293d b599 8d3c
00000140: ba15 ffbc 282d dbbb ed6a 55bb 3879 d53b
00000150: 3bcd 5cbd 6eb8 ba3a e744 99bc 5997 253c
00000160: fa01 c03b 1bef f5bc 1e0b 25bd 00f5 103d
00000170: a0a8 ebbb 1027 cd3b c810 3fbc 8a45 a6bc
00000180: 47e5 f1bc a55d 2ebd 543c 173d 7cd3 b33c
00000190: 0a4d 1abb 209b 903c 8fdf 933c 80f6 febc
000001a0: 461f f83c d606 af3c 2821 70bc 969c 093d
000001b0: 394d 0cbd 208d 18ba 92fb 713c 2889 f6bb
000001c0: e807 c13c afe0 87bd 6011 bd3a 82a0 363d
000001d0: 5646 41bd 6892 1bbc 8c73 ca3c 0654 9cbc
000001e0: d800 bebb 5e22 f33c 6399 e4bc ac98 cf3c
000001f0: b184 ba3c 79be 46bc 85a7 013d 4b44 103d
00000200: 0722 293c 759b d43c 902d 6e3b fc1d 293d
00000210: ec88 febc 00bc 673b b73b 56bd 2360 be3b
00000220: 2836 503d b187 52bd c8c6 ec3b d428 073d
00000230: 0ef3 9ebc 7bec febc 8e3d c0bc 30a7 403c
00000240: 1749 94ba eb03 e53c 5817 0ebc 4050 eebc
00000250: d06b bcbb 1033 a93b 1177 64bc 009a 863c
00000260: 5045 debb 54da 8a3c 875c ccb9 3cfa 43bc
00000270: 8fc2 52bd 9468 2e3d 18a6 bfbb 540d b9bb
00000280: 1079 10bd 009b d53c e46b 053c 24e9 13bc
00000290: 7857 053d 9a46 753c 93e5 4fbd 37f1 1abd
000002a0: a444 803c deb1 033d 40c1 eb3a edd9 adbc
000002b0: 1a12 42bd 836a 103d c959 2dbd 0439 27bc
000002c0: 771f c8bc 047e 2e3d d807 dd3c 605c baba
000002d0: e807 f5bb e2a9 f0ba af2b ce3b 03ce 8dbd
000002e0: f0c9 2d3d 5c3c fdbb 2f38 c23b c4ba e83c
000002f0: 70c5 0e3d d51a 09bd 4f25 b2bc 6a1d c7bc
00000300: 1d45 15bd 4004 a03b 402c 713c 6902 aebc
00000310: ee46 353d 3ace 03bd 40d9 28bc 9054 983b
00000320: 7433 073c f826 4d3c 31a0 68bd 7a7a 40bd
00000330: 3c46 443d 2472 143d d5b8 de3c 4698 bbbb
00000340: c044 28bd 5b02 d5bc 3308 843c f050 a93c
00000350: 5a44 983c a07a 56bb 302f 483d 2219 ba3c
00000360: 8f27 1fbc 3a9d 0f3c f44e 9d3c 3cd8 13bd
00000370: cf1c 6bbd 078e 6bbb a109 4cbd 58d1 df3c
00000380: 4400 8cbb 4917 54bd bc38 9d3c 1e98 38bc
00000390: d922 d0bc af59 9ebc 7849 9a3c 59cf 0abd
000003a0: 492e 803b e903 bdbc 8470 1b3d 4dd7 1bbc
000003b0: a00a 2f3c 2d75 1dbd 19e9 2f3d ea4b dfbc
000003c0: cd02 82bc d86a 17bd 33c0 89bd 5581 2e3d
000003d0: 261d 53bd 682f 503d bf29 09bc 6b89 0dbd
000003e0: 6a3f f93c 90ab 97bc 1866 6cbd 6d7d b93c
000003f0: 5092 d1bc 38d9 9bbc dd0c 14bd 7c28 b1bc
0.02781563 -0.06473154 -0.017093394 -0.014353123 0.010682181 0.020699061 0.016343817 -0.010494902
-0.025745226 0.010918699 0.0047952235 0.031757183 -0.02394495 -0.00097107363 0.04491196 -0.05715439
-0.003425569 0.015709829 -0.058865413 0.0339152 0.02248543 0.02689077 -0.021579925 -0.046087783
-0.017691502 -0.05106163 0.0080128675 -0.022866582 0.010745444 -3.6332756e-05 -0.046750348 -0.052632567
-0.03682317 -0.019021675 -0.028696578 -0.001967886 0.008378377 -0.0363682 0.012025557 0.0048436145
-0.027226223 -0.01903896 0.035719074 -0.0014752857 -0.009001713 -0.018809397 -0.061548907 -0.041569978
-0.032145347 -0.0013991296 0.0034291046 -0.012442566 -0.032333426 -0.008063007 0.008470144 0.002985646
-0.052066065 -0.015939219 -0.012007858 0.023965072 -0.03742963 0.034937203 0.01676732 -0.01737554
-0.056586556 0.0073090964 -0.009532823 0.032669384 0.049707837 -0.07293933 -0.0012339166 0.02758678
0.043414846 -0.04362294 0.013793378 0.023304082 0.05198954 0.003356833 0.04137964 0.017285207
-0.03113829 -0.0066887327 -0.0032564953 0.0065146945 -0.05390666 0.0014245638 -0.018709613 0.010106885
0.0058596106 -0.030021241 -0.040293805 0.0353899 -0.0071917325 0.00626076 -0.011661716 -0.02029683
-0.029528273 -0.042569775 0.036922768 0.02195143 -0.0023544454 0.017652094 0.018050937 -0.0311234
0.03028835 0.021365564 -0.014656343 0.033596598 -0.034253333 -0.0005819369 0.014769452 -0.0075236745
0.02356334 -0.06634652 0.0014424734 0.044586666 -0.04718622 -0.009495355 0.0247133 -0.019083034
-0.0057984404 0.029679473 -0.027905172 0.025341354 0.02276835 -0.012130373 0.0316539 0.03522138
0.010323054 0.025953034 0.0036343075 0.04128836 -0.031071149 0.003535986 -0.052303042 0.0058098002
0.050832897 -0.051398937 0.007225845 0.03299792 -0.019403007 -0.031118622 -0.023466852 0.011758611
-0.0011313286 0.02795597 -0.008672558 -0.029091 -0.005750157 0.005163558 -0.013944403 0.016430855
-0.006783165 0.01694981 -0.0003897885 -0.011961516 -0.051455077 0.042580202 -0.0058486573 -0.005647341
-0.035271704 0.026074886 0.008143399 -0.009027753 0.03255412 0.014970446 -0.05075605 -0.037827697
0.01565773 0.03215205 0.001798667 -0.02122208 -0.047380544 0.035257827 -0.042321954 -0.010206465
-0.024429066 0.042600647 0.02698128 -0.0014218204 -0.007477749 -0.0018361176 0.0062918286 -0.06924059
0.04242891 -0.0077281427 0.0059271078 0.02840937 0.03485626 -0.033472855 -0.021746306 -0.024306018
-0.036442865 0.004883319 0.014720023 -0.021241384 0.044257097 -0.032179095 -0.010305703 0.0046487525
0.0082520135 0.012521498 -0.056793395 -0.046991803 0.047918543 0.036241665 0.027187744 -0.0057249395
-0.04108119 -0.0260021 0.016117191 0.020668477 0.01858728 -0.0032726899 0.048873127 0.022717062
-0.009714021 0.008765513 0.019202687 -0.03609489 -0.05740052 -0.003594281 -0.04981387 0.027321503
-0.0042724926 -0.05178002 0.019192092 -0.011266736 -0.025407242 -0.019329874 0.01883386 -0.03388915
0.0039117676 -0.023073154 0.0379491 -0.009511781 0.010683686 -0.038441826 0.04294691 -0.027257878
-0.015870476 -0.03696713 -0.06726112 0.04260381 -0.05154147 0.05082646 -0.008371769 -0.03455488
0.030425746 -0.018514425 -0.05771455 0.022642815 -0.025582463 -0.019024476 -0.03614508 -0.02162575

fc1.bias f4 [50]
00000000: df26 c5bc 01c8 f33d 5d51 3abd ce99 1cbd
00000010: 244e 813d 514a f6bc 8427 663e 8895 123e
00000020: a73d 8f3d e137 9e3e 3ed1 3ebc ca69 d73d
00000030: 2427 263e 8fbe a6bc cddb 063e c356 023e
00000040: 2e9e aebc 9ef1 663e 1096 65bc 8d34 953e
00000050: 1016 4d3e 91cf 853e 932a 00bd 80b8 cd3b
00000060: 78ac 0f3e b9e2 0f3e 402c 213e 5523 44bd
00000070: 2808 883e b68b 4f3e 2f6f dd3d ae9c aabc
00000080: fbcc 083b 44a6 a5bc 726d a9bc c4fd 653e
00000090: dd33 9e3e 1640 a53d d013 b5bc c0c2 9dbc
000000a0: bcf8 e1bc 2494 c63d f1f4 f8bc b22a 3cbd
000000b0: 4c49 25bd e99d fabb 8018 213e 461e fb3c
000000c0: 3417 793c b191 213f
-0.024066387 0.11903382 -0.04548775 -0.038232617 0.06313732 -0.030064734 0.22476012 0.14314854
0.06994181 0.30902007 -0.011646567 0.105182245 0.16225868 -0.020354537 0.13169785 0.1272841
-0.02131566 0.22553107 -0.0140128285 0.29141656 0.20027947 0.26134923 -0.031290602 0.0062780976
0.14030635 0.14051332 0.15739536 -0.047885258 0.26568723 0.20268139 0.10812222 -0.020826664
0.002087413 -0.020220883 -0.02068207 0.22460085 0.30898944 0.08068864 -0.022104174 -0.019257903
-0.027584426 0.09696224 -0.030390235 -0.045939155 -0.040353104 -0.007648219 0.15732002 0.030654084
0.015203286 0.6311293

fc2.weight f4 [2, 50]
00000000: 2036 dd3c 25f8 d03c ec95 87bd c917 943d
00000010: fc6e 053e c0e2 e1bd 98da 0a3e d511 9d3d
00000020: 677f cd3a e659 953e 6139 88bd 2792 253e
00000030: 83ca 873d c05c aebb c656 823e cae2 483e
00000040: e135 98bd a18e 153e aff7 d1bd bb6a 2c3e
00000050: 4e46 233e 1a6c c43e bde9 863c a273 85bc
00000060: 0a41 6c3d 1951 0e3e d9c3 443e d8b3 4bbd
00000070: aafe 233e 7d9a f33d 7c81 013e d714 f8bd
00000080: 30a4 a2bd 090c a03d 8303 313d 241c 183d
00000090: 44c3 143e 2627 083e e5c6 40bd c7cd a9bd
000000a0: 164d 29bb fb93 e93d 0491 95bd 72ab 87bd
000000b0: 9856 f1bd ee8b b5bd 6a8d 7d3e 382f 01be
000000c0: a2f8 93bb 9a54 113f 09c1 113d 754c 0ebe
000000d0: bef9 7fbc db8a 983d 6abb 1abe bd02 553c
000000e0: 647e 16be 1b76 56be cc5d 81bc 800b 87be
000000f0: 1571 043e addf 76be 44fb a8bd 6428 613d
00000100: 3884 8fbe 23fc 2bbe 0ca1 06bd d5fb 26be
00000110: ce7e 613d 9626 82be dc4f e2bd eba8 39be
00000120: 5a0f 6c3c c734 cb3d 9a56 0cbe 1285 d3bd
00000130: 9aea 70be b819 123b 5aef 2bbd 529f 85bd
00000140: 459e c9bd bd57 e03c aece 45bd 20b2 e73d
00000150: 08ab e23d b186 4cbe f83d 13bc dcff 25be
00000160: 940d f43d 4d47 a8bd a973 553d 4b1a 2fbe
00000170: 55ee d13c 206b a73c b891 bebd aa54 c23c
00000180: 8aa3 a2bd 9877 7abc a155 063d 16b3 e0be
0.027003348 0.02550895 -0.06620392 0.07231099 0.13030618 -0.11029577 0.1355995 0.07669417
0.0015678228 0.2917015 -0.06651569 0.16169034 0.06630423 -0.0053211153 0.25456828 0.19617763
-0.074321516 0.1460519 -0.1025232 0.1683759 0.15944788 0.38363725 0.016468877 -0.01629049
0.057679214 0.13898124 0.19215335 -0.04973206 0.16015115 0.11894701 0.1264705 -0.1211335
-0.079414725 0.078147955 0.04321624 0.037136212 0.14527613 0.13296184 -0.04706468 -0.08291202
-0.00258333 0.11405178 -0.0730305 -0.066244975 -0.117840946 -0.0886458 0.24760976 -0.12615669
-0.0045157233 0.56769717 0.035584483 -0.13896354 -0.015623508 0.074483596 -0.15110555 0.013001141
-0.14696652 -0.20943491 -0.015791796 -0.2637596 0.12933762 -0.24108763 -0.0825105 0.05497016
-0.28030562 -0.16795401 -0.03286843 -0.16307004 0.05505257 -0.25420064 -0.11050388 -0.18130843
0.014407957 0.09922176 -0.13704911 -0.103281155 -0.23526993 0.0022293162 -0.04197631 -0.065245286
-0.09844641 0.027385587 -0.04829281 0.113132715 0.11067778 -0.19973256 -0.0089869425 -0.16210884
0.11916652 -0.082167245 0.052112255 -0.17099874 0.02562634 0.020436823 -0.093051374 0.023722012
-0.07941349 -0.015287302 0.032796506 -0.43886632

fc2.bias f4 [2]
00000000: 166e 3a3e 3615 51be
0.18206057 -0.20418248

exp_avg f4 [50, 365]
00000000: 6dc5 8b34 6f1f a529 0400 0000 0400 0000
00000010: 0400 0000 0000 0000 0000 0000 0400 0000
00000020: 29e4 2722 0000 0000 1bfe 2d21 0000 0000
00000030: 0b6e 9d29 96dc 761c 0000 0000 1bfe 2d21
00000040: 1bfe 2d21 7371 9d29 54ef fc1a 0000 0000
00000050: 0400 0000 8623 6c1b a972 a222 3ab1 260c
00000060: 96dc 761c 0000 0000 12d8 ed32 0000 0000
00000070: 0400 0000 0400 0000 06a5 3b28 5614 e529
00000080: 5b97 2b01 0000 0000 0000 0000 0400 0000
00000090: 0400 0000 0400 0000 0000 0000 5b97 2b01
000000a0: 0400 0000 0400 0000 0000 0000 5b97 2b01
000000b0: 0400 0000 1bfe 2d21 1bfe 2d21 0000 0000
000000c0: 5b97 2b01 0000 0000 5b97 2b01 0000 0000
000000d0: 5b97 2b01 0000 0000 0000 0000 b704 0b1d
000000e0: 830a 9a1c db61 1002 db61 1002 0400 0000
000000f0: db61 1002 5b97 2b01 b13e 3015 b13e 3015
00000100: b13e 3015 b13e 3015 0400 0000 bfa7 3b28
00000110: 0000 0000 48ae da1f 0400 0000 e7b8 3a29
00000120: 0000 0000 0000 0000 0400 0000 0000 0000
00000130: 0000 0000 0000 0000 5e7f 0618 54ef fc1a
00000140: 0000 0000 0000 0000 3d0d 0524 0000 0000
00000150: 5b97 2b01 5b14 0524 5b97 2b01 5b97 2b01
00000160: 5b97 2b01 0000 0000 0000 0000 0000 0000
00000170: 0000 0000 0000 0000 0000 0000 0000 0000
00000180: 0000 0000 0400 0000 0000 0000 0400 0000
00000190: 5b97 2b01 0000 0000 b047 3b02 0400 0000
000001a0: c9ba 741e 0400 0000 0000 0000 1cfe 2d21
000001b0: 1bfe 2d21 b13e 3015 030d f928 0000 0000
000001c0: 0000 0000 f229 0224 0000 0000 0000 0000
000001d0: 0000 0000 0000 0000 4e93 3121 0000 0000
000001e0: 0000 0000 5b97 2b01 0000 0000 0000 0000
000001f0: 5b97 2b01 b13e 3015 91d9 2822 0400 0000
00000200: 0400 0000 fe4c 651e 0000 0000 5b97 2b01
00000210: 0400 0000 0000 0000 0400 0000 9907 5826
00000220: 0000 0000 0400 0000 0000 0000 0000 0000
00000230: 0000 0000 1bfe 2d21 0400 0000 0000 0000
00000240: 00bf 8534 5e7f 0618 0400 0000 900b 3b1f
00000250: 0000 0000 0000 0000 0fa9 7313 0000 0000
00000260: 0000 0000 0000 0000 0406 2e21 0000 0000
00000270: 0000 0000 0000 0000 0000 0000 0400 0000
00000280: cb54 c51d 0000 0000 0400 0000 0000 0000
00000290: 0400 0000 0400 0000 0000 0000 0400 0000
000002a0: 0000 0000 0000 0000 0000 0000 0000 0000
000002b0: 0000 0000 1bfe 2d21 0000 0000 0000 0000
000002c0: 1bfe 2d21 0000 0000 5dca e61f 0000 0000
000002d0: 0000 0000 b13e 3015 834c 590e 8aa5 3b28
000002e0: 0000 0000 0400 0000 0400 0000 0400 0000
000002f0: 0000 0000 0000 0000 54ef fc1a 0400 0000
00000300: 0000 0000 0000 0000 0000 0000 0000 0000
00000310: 0000 0000 0000 0000 5b97 2b01 0000 0000
00000320: 0000 0000 0000 0000 1bfe 2d21 99e0 2722
00000330: 0000 0000 0000 0000 3ab1 260c 0400 0000
00000340: 0000 0000 0000 0000 7858 0c24 0000 0000
00000350: 2862 aa04 0000 0000 0400 0000 96dc 761c
00000360: b13e 3015 ea77 a513 0400 0000 0000 0000
00000370: 5b97 2b01 ef80 2e21 5e7f 0618 1bfe 2d21
00000380: 2aae 4731 5b97 2b01 0000 0000 29a8 3b28
00000390: 93c0 011f a7ab 3022 0000 0000 f5b2 0c20
000003a0: b489 d81f 1bfe 2d21 0000 0000 5b97 2b01
000003b0: 0000 0000 136b 4e0f 0400 0000 6229 0f29
000003c0: 0400 0000 0000 0000 3014 7819 b047 3b02
000003d0: 0000 0000 0000 0000 db3e 3015 984b 3015
000003e0: 5b97 2b01 1bfe 2d21 1bfe 2d21 5b97 2b01
000003f0: 0000 0000 0000 0000 1bfe 2d21 16ac 3b28
2.6034414e-07 7.332925e-14 6e-45 6e-45 6e-45 0.0 0.0 6e-45
2.2753507e-18 0.0 5.8950986e-19 0.0 6.99129e-14 8.1679673e-22 0.0 5.8950986e-19
5.8950986e-19 6.991881e-14 1.0461141e-22 0.0 6e-45 1.9532941e-22 4.403159e-18 1.2841507e-31
8.1679673e-22 0.0 2.7688689e-08 0.0 6e-45 6e-45 1.0416369e-14 1.01731706e-13
3.1516332e-38 0.0 0.0 6e-45 6e-45 6e-45 0.0 3.1516332e-38
6e-45 6e-45 0.0 3.1516332e-38 6e-45 5.8950986e-19 5.8950986e-19 0.0
3.1516332e-38 0.0 3.1516332e-38 0.0 3.1516332e-38 0.0 0.0 1.8398934e-21
1.0193582e-21 1.0607532e-37 1.0607532e-37 6e-45 1.0607532e-37 3.1516332e-38 3.5592372e-26 3.5592372e-26
3.5592372e-26 3.5592372e-26 6e-45 1.0416959e-14 0.0 9.2614915e-20 6e-45 4.1460674e-14
0.0 0.0 6e-45 0.0 0.0 0.0 1.7383398e-24 1.0461141e-22
0.0 0.0 2.885099e-17 0.0 3.1516332e-38 2.885702e-17 3.1516332e-38 3.1516332e-38
3.1516332e-38 0.0 0.0 0.0 0.0 0.0 0.0 0.0
0.0 6e-45 0.0 6e-45 3.1516332e-38 0.0 1.3759164e-37 6e-45
1.2955879e-20 6e-45 0.0 5.895099e-19 5.8950986e-19 3.5592372e-26 2.7650196e-14 0.0
0.0 2.8224786e-17 0.0 0.0 0.0 0.0 6.016489e-19 0.0
0.0 3.1516332e-38 0.0 0.0 3.1516332e-38 3.5592372e-26 2.2883424e-18 6e-45
6e-45 1.2139081e-20 0.0 3.1516332e-38 6e-45 0.0 6e-45 7.495035e-16
0.0 6e-45 0.0 0.0 0.0 5.8950986e-19 6e-45 0.0
2.491215e-07 1.7383398e-24 6e-45 3.9608355e-20 0.0 0.0 3.0754264e-27 0.0
0.0 0.0 5.8961455e-19 0.0 0.0 0.0 0.0 6e-45
5.223314e-21 0.0 6e-45 0.0 6e-45 6e-45 0.0 6e-45
0.0 0.0 0.0 0.0 0.0 5.8950986e-19 0.0 0.0
5.8950986e-19 0.0 9.774357e-20 0.0 0.0 3.5592372e-26 2.6784154e-30 1.0416481e-14
0.0 6e-45 6e-45 6e-45 0.0 0.0 1.0461141e-22 6e-45
0.0 0.0 0.0 0.0 0.0 0.0 3.1516332e-38 0.0
0.0 0.0 5.8950986e-19 2.2751621e-18 0.0 0.0 1.2841507e-31 6e-45
0.0 0.0 3.0432597e-17 0.0 4.005695e-36 0.0 6e-45 8.1679673e-22
3.5592372e-26 4.17701e-27 6e-45 0.0 3.1516332e-38 5.9124135e-19 1.7383398e-24 5.8950986e-19
2.9057312e-09 3.1516332e-38 0.0 1.0417049e-14 2.7476106e-20 2.394332e-18 0.0 1.1917673e-19
9.170737e-20 5.8950986e-19 0.0 3.1516332e-38 0.0 1.0177206e-29 6e-45 3.1788272e-14
6e-45 0.0 1.2825376e-23 1.3759164e-37 0.0 0.0 3.55925e-26 3.560255e-26
3.1516332e-38 5.8950986e-19 5.8950986e-19 3.1516332e-38 0.0 0.0 5.8950986e-19 1.04179005e-14

exp_avg_sq f4 [50, 365]
00000000: 3476 e337 2154 a632 a207 0000 7adf a125
00000010: 7adf a125 0000 0000 0000 0000 3b12 142e
00000020: 4a7a cd2f 0000 0000 5943 312e 0000 0000
00000030: 7bab 5f32 05bf 7d2d 0000 0000 d050 0c2f
00000040: 8130 312e 632f 7032 d986 e22e 0000 0000
00000050: d6b4 352c 1de9 4931 9d1e 572e 8a53 352d
00000060: 0bc8 7d2d 0000 0000 0270 5733 0000 0000
00000070: eea4 a228 6bdf 7d00 5482 a62c 0bd3 3233
00000080: fd7b 9628 0000 0000 0000 0000 7a84 ed1e
00000090: 4f26 c727 4f26 c727 0000 0000 eeb3 d62d
000000a0: a207 0000 fb07 ea10 0000 0000 5cbd 132f
000000b0: f762 a22e 3126 f02e 8130 312e 0000 0000
000000c0: 802a 1f2b 0000 0000 4619 102d 0000 0000
000000d0: fd7b 9628 0000 0000 0000 0000 e5a1 3431
000000e0: 8e6f 8030 a5ca bb2b 56a4 c42e 14e7 392a
000000f0: 47a4 c42e fd7b 9628 8483 d32e 8483 d32e
00000100: 8483 d32e 8483 d32e e3a1 d82a 21ba ba2f
00000110: 0000 0000 d783 3130 e593 7a2d 1331 cb32
00000120: 0000 0000 0000 0000 fbc6 a926 0000 0000
00000130: 0000 0000 0000 0000 cdfd c62d 2b7d 342f
00000140: 0000 0000 0000 0000 258b 1d32 0000 0000
00000150: d90a 882e 8be4 3432 fd7b 9628 d9c9 082e
00000160: fd7b 9628 0000 0000 0000 0000 0000 0000
00000170: 0000 0000 0000 0000 0000 0000 0000 0000
00000180: 0000 0000 6d61 122b 0000 0000 2ece 0f2d
00000190: 86f4 102d 0000 0000 35f2 992d 2ece 0f2d
000001a0: d026 8e2f fb07 ea10 0000 0000 189a 2130
000001b0: 8130 312e 2d0b 282e 2c04 3a31 0000 0000
000001c0: 0000 0000 2c60 8331 0000 0000 0000 0000
000001d0: 0000 0000 0000 0000 99d3 8730 0000 0000
000001e0: 0000 0000 fd7b 9628 0000 0000 0000 0000
000001f0: fd7b 9628 980d 982a eda1 d431 ceaf 511c
00000200: 7a84 ed1e 3986 982c 0000 0000 e61d 9628
00000210: 6510 4818 0000 0000 2ece 0f2d 3fac e72f
00000220: 0000 0000 c0ad 2d2e 0000 0000 0000 0000
00000230: 0000 0000 b783 342e 13e7 392a 0000 0000
00000240: a2c7 8233 b087 c62d 7366 7f2e bc7e 9f30
00000250: 0000 0000 0000 0000 4371 a42b 0000 0000
00000260: 0000 0000 0000 0000 e82e 8f2f 0000 0000
00000270: 0000 0000 0000 0000 0000 0000 f090 5d27
00000280: 76c6 d32f 0000 0000 e3a1 d82a 0000 0000
00000290: 770e 1025 770e 1025 0000 0000 58e1 c72d
000002a0: 0000 0000 0000 0000 0000 0000 0000 0000
000002b0: 0000 0000 8130 312e 0000 0000 0000 0000
000002c0: 8130 312e 0000 0000 d141 2631 0000 0000
000002d0: 0000 0000 7f8f 142d 47c9 1c2d 88dc 3832
000002e0: 0000 0000 a40f 4818 a1df f818 c366 e32e
000002f0: 0000 0000 0000 0000 e353 bf2e aa20 7e2d
00000300: 0000 0000 0000 0000 0000 0000 0000 0000
00000310: 0000 0000 0000 0000 9b6e 212f 0000 0000
00000320: 0000 0000 0000 0000 5943 312e 1a97 e42e
00000330: 0000 0000 0000 0000 8a53 352d a0ef fc2e
00000340: 0000 0000 0000 0000 a3b7 8031 0000 0000
00000350: 335a d92a 0000 0000 0a28 3309 ded6 3d2f
00000360: 4bad a02e b19d 192f 7a84 ed1e 0000 0000
00000370: fd7b 9628 ac92 8b30 b087 c62d 8130 312e
00000380: c487 3b33 fd7b 9628 0000 0000 7f1e 6e31
00000390: 7635 ae2f a079 5c30 0000 0000 1dd7 4830
000003a0: 5f76 ad2f 8130 312e 0000 0000 fd7b 9628
000003b0: 0000 0000 6a78 a32e fb3a 301d c8ca d832
000003c0: f306 0e2e 0000 0000 f39b ae30 6074 142f
000003d0: 0000 0000 0000 0000 f6fd e12e f1d0 352f
000003e0: fd7b 9628 f7b1 c22e d745 8e2e fd7b 9628
000003f0: 0000 0000 0000 0000 2e24 552e 1c6b 0d31
2.7115551e-05 1.93632e-08 2.738e-42 2.8080482e-16 2.8080482e-16 0.0 0.0 3.3667496e-11
3.7376174e-10 0.0 4.0304957e-11 0.0 1.30192985e-08 1.44238e-11 0.0 1.2761636e-10
4.028822e-11 1.3980613e-08 1.0301244e-10 0.0 2.5822031e-12 2.938186e-09 4.891253e-11 1.0307208e-11
1.44258034e-11 0.0 5.016046e-08 0.0 1.805714e-14 1.1559584e-38 4.732473e-12 4.1635797e-08
1.6707117e-14 0.0 0.0 2.5148142e-20 5.527513e-15 5.527513e-15 0.0 2.4408888e-11
2.738e-42 9.230902e-29 0.0 1.3436846e-10 7.384487e-11 1.09207206e-10 4.028822e-11 0.0
5.654713e-13 0.0 8.191064e-12 0.0 1.6707117e-14 0.0 0.0 2.6285474e-09
9.344931e-10 1.3343394e-12 8.94224e-11 1.6511472e-13 8.9422296e-11 1.6707117e-14 9.618531e-11 9.618531e-11
9.618531e-11 9.618531e-11 3.848164e-13 3.3965455e-10 0.0 6.457958e-10 1.4243694e-11 2.3654627e-08
0.0 0.0 1.1780664e-15 0.0 0.0 0.0 2.2622704e-11 1.6415373e-10
0.0 0.0 9.170241e-09 0.0 6.186491e-11 1.0529344e-08 1.6707117e-14 3.1102097e-11
1.6707117e-14 0.0 0.0 0.0 0.0 0.0 0.0 0.0
0.0 5.2004825e-13 0.0 8.17439e-12 8.239747e-12 0.0 1.7501648e-11 8.17439e-12
2.5857227e-10 9.230902e-29 0.0 5.879044e-10 4.028822e-11 3.8208704e-11 2.7068934e-09 0.0
0.0 3.8235353e-09 0.0 0.0 0.0 0.0 9.882682e-10 0.0
0.0 1.6707117e-14 0.0 0.0 1.6707117e-14 2.7010057e-13 6.188421e-09 6.937952e-22
2.5148142e-20 4.3350015e-12 0.0 1.6666312e-14 2.5857671e-24 0.0 8.17439e-12 4.2141043e-10
0.0 3.9489967e-11 0.0 0.0 0.0 4.1044248e-11 1.6511471e-13 0.0
6.08991e-08 2.2570251e-11 5.807128e-11 1.1604793e-09 0.0 0.0 1.1684337e-12 0.0
0.0 0.0 2.6044877e-10 0.0 0.0 0.0 0.0 3.0748482e-15
3.8521691e-10 0.0 3.848164e-13 0.0 1.249491e-16 1.249491e-16 0.0 2.2723753e-11
0.0 0.0 0.0 0.0 0.0 4.028822e-11 0.0 0.0
4.028822e-11 0.0 2.4193592e-09 0.0 0.0 8.4446885e-12 8.912266e-12 1.0760353e-08
0.0 2.585729e-24 6.4332305e-24 1.0341019e-10 0.0 0.0 8.700576e-11 1.4445481e-11
0.0 0.0 0.0 0.0 0.0 0.0 1.468216e-10 0.0
0.0 0.0 4.0304957e-11 1.03950806e-10 0.0 0.0 1.0307208e-11 1.1502199e-10
0.0 0.0 3.7461674e-09 0.0 3.8609532e-13 0.0 2.1565168e-33 1.7265786e-10
7.3067406e-11 1.3971292e-10 2.5148142e-20 0.0 1.6707117e-14 1.0155268e-09 2.2570251e-11 4.028822e-11
4.366281e-08 1.6707117e-14 0.0 3.4650893e-09 3.1688402e-10 8.0208373e-10 0.0 7.306527e-10
3.1552624e-10 4.028822e-11 0.0 1.6707117e-14 0.0 7.433772e-11 2.3323898e-21 2.5237924e-08
3.2293234e-11 0.0 1.270449e-09 1.3501866e-10 0.0 0.0 1.0276928e-10 1.6536085e-10
1.6707117e-14 8.8537115e-11 6.4698184e-11 1.6707117e-14 0.0 0.0 4.8462727e-11 2.0579085e-09

exp_avg f4 [50]
00000000: 00bf 8534 ef72 edb6 04d8 cc31 0400 0000
00000010: 0326 4bb7 fe08 402e 0ee4 4bb7 fa83 4eb7
00000020: a72e 48b5 3a4c c8b7 0400 0000 ae5e 91b7
00000030: b9cb d6b6 0400 0000 3703 c1b7 b06f 83b7
00000040: 0400 0000 3708 5fb7 b1d5 1935 836a 98b7
00000050: ffc7 42b7 67c2 cbb7 f842 57b3 a74a 4335
00000060: da8f 0cb7 96e3 2eb7 003f 9ab7 0400 0000
00000070: a9c9 11b7 60e1 04b7 f35c 22b7 0400 0000
00000080: c1a3 7b31 dd90 1330 454d 9732 eee1 2ab7
00000090: e184 deb6 fcfe 54b7 01fe 4132 e2c9 d0ac
000000a0: 0400 0000 36c9 4db7 0400 0000 e885 8329
000000b0: 0400 0000 93be 9322 a404 6cb7 0400 0000
000000c0: 0400 0000 d22f 35b8
2.491215e-07 -7.0765304e-06 5.9617395e-09 6e-45 -1.2108593e-05 4.3663732e-11 -1.2152841e-05 -1.2309285e-05
-7.4573694e-07 -2.3877354e-05 6e-45 -1.7329436e-05 -6.4014134e-06 6e-45 -2.300889e-05 -1.5668425e-05
6e-45 -1.3293748e-05 5.7307903e-07 -1.816941e-05 -1.1609866e-05 -2.4290011e-05 -5.0119496e-08 7.2751794e-07
-8.378143e-06 -1.0424197e-05 -1.8387567e-05 6e-45 -8.689626e-06 -7.920287e-06 -9.677594e-06 6e-45
3.661839e-09 5.368415e-10 1.7613852e-08 -1.0185393e-05 -6.6315847e-06 -1.2695553e-05 1.1291832e-08 -5.934129e-12
6e-45 -1.22658e-05 6e-45 5.840798e-14 6e-45 4.004621e-18 -1.4067777e-05 6e-45
6e-45 -4.31983e-05

exp_avg_sq f4 [50]
00000000: a2c7 8233 f2bc 4b35 6702 4534 7cb6 982c
00000010: d4cc 5436 b173 7a35 91f7 f534 123d be35
00000020: 3e09 4c32 8990 b834 8244 0432 096f a336
00000030: 7dd8 6934 519a a12f 5c90 7c36 fcd3 f436
00000040: 5362 7c30 442e ba34 4320 2336 98d8 c934
00000050: 4ac1 a234 bcf3 3635 361c 3232 ce39 9735
00000060: 4df1 9935 63b0 2f36 c259 4936 3a11 152f
00000070: f538 9733 3e81 d633 f7ec 1c36 595a f533
00000080: b278 1234 4e79 b533 6fa6 2935 1393 4834
00000090: 8150 2033 7403 4736 9ab9 8b35 7549 5531
000000a0: 5d51 2c32 e4d5 8936 f0c5 2932 1a16 2b35
000000b0: 674a f82d 6b89 ab34 31f3 d335 244a 1033
000000c0: e54d cf33 98cb b733
6.08991e-08 7.5898345e-07 1.8347929e-07 4.3403597e-12 3.1709687e-06 9.330061e-07 4.5814934e-07 1.4173877e-06
1.1876464e-08 3.4377834e-07 7.698988e-09 4.8707047e-06 2.1778574e-07 2.9395378e-10 3.7634954e-06 7.296445e-06
9.1816793e-10 3.4678862e-07 2.4307672e-06 3.759676e-07 3.0315488e-07 6.8154964e-07 1.0367378e-08 1.12672e-06
1.1469616e-06 2.6179703e-06 3.000358e-06 1.3557591e-10 7.041846e-08 9.9886606e-08 2.3383743e-06 1.1425136e-07
1.3641218e-07 8.4505345e-08 6.31996e-07 1.8679957e-07 3.732612e-08 2.965532e-06 1.0410324e-06 3.1037335e-09
1.00302175e-08 4.1078183e-06 9.8821005e-09 6.3734626e-07 2.8227377e-11 3.1951217e-07 1.5791503e-06 3.3595043e-08
9.6533576e-08 8.558635e-08

exp_avg f4 [2, 50]
00000000: 4017 0fb4 d29f a8b7 5e52 b5b1 0400 0080
00000010: de14 63b7 a59c 18aa 42f0 cfb7 746e 83b7
00000020: a8df 9eb6 cb64 32b8 0400 0080 2aa9 6db7
00000030: 18ac a8b7 0400 0080 3c66 a9b7 4a28 6eb7
00000040: 0400 0080 3012 e9b7 2e72 42b3 585c 1fb8
00000050: ba0f d0b7 291b 1cb8 e759 acb4 9487 04b4
00000060: a410 84b7 a05a 6fb7 e7ec 97b7 0400 0080
00000070: 2c0c 14b8 cea1 fbb7 2f10 8bb7 0400 0080
00000080: 7021 c6b0 1f2d a2b0 1f40 3db1 1619 dab7
00000090: c1b3 14b8 bc52 83b7 3fb7 35b0 35e2 58ad
000000a0: 0400 0080 3bcc 49b7 0400 0080 0400 0080
000000b0: 0400 0080 0400 0080 e945 a2b7 0400 0080
000000c0: 0400 0080 bf4b aab8 c318 0f34 37a2 a837
000000d0: f5b7 b531 0400 0000 fb17 6337 f57b 552a
000000e0: b8f2 cf37 fa6f 8337 dfe1 9e36 2367 3238
000000f0: 0400 0000 83ab 6d37 08ae a837 0400 0000
00000100: 5668 a937 932b 6e37 0400 0000 4115 e937
00000110: 077e 4233 4d5e 1f38 7212 d037 301d 1c38
00000120: dd5a ac34 6e89 0434 7112 8437 505d 6f37
00000130: e3ee 9737 0400 0000 0e0e 1438 29a5 fb37
00000140: e911 8b37 0400 0000 246e c630 5d4d a330
00000150: c656 3d31 c51b da37 aeb5 1438 5754 8337
00000160: 4511 3630 9d83 6d2d 0400 0000 f9ce 4937
00000170: 0400 0000 1d65 5729 0400 0000 5993 c222
00000180: ef47 a237 0400 0000 0400 0000 024e aa38
-1.3326371e-07 -2.0101583e-05 -5.2771574e-09 -6e-45 -1.3535113e-05 -1.3554659e-13 -2.4788202e-05 -1.566785e-05
-4.734804e-06 -4.2532378e-05 -6e-45 -1.4165687e-05 -2.0107298e-05 -6e-45 -2.0193977e-05 -1.4195286e-05
-6e-45 -2.7784234e-05 -4.527299e-08 -3.7994556e-05 -2.4802855e-05 -3.7218593e-05 -3.210291e-07 -1.2342781e-07
-1.5743375e-05 -1.426661e-05 -1.8110919e-05 -6e-45 -3.5297286e-05 -2.9996878e-05 -1.6577627e-05 -6e-45
-1.44159e-09 -1.1799876e-09 -2.7539568e-09 -2.5999307e-05 -3.545336e-05 -1.5654943e-05 -6.6107825e-10 -1.23284065e-11
-6e-45 -1.2028085e-05 -6e-45 -6e-45 -6e-45 -6e-45 -1.934446e-05 -6e-45
-6e-45 -8.1203405e-05 1.3326921e-07 2.0102698e-05 5.288707e-09 6e-45 1.3535838e-05 1.8961207e-13
2.4789348e-05 1.566856e-05 4.735062e-06 4.253456e-05 6e-45 1.4166234e-05 2.01082e-05 6e-45
2.0194955e-05 1.4196051e-05 6e-45 2.7785662e-05 4.5283766e-08 3.799638e-05 2.4804121e-05 3.722048e-05
3.2103608e-07 1.2343455e-07 1.5744214e-05 1.4267236e-05 1.8111843e-05 6e-45 3.529904e-05 2.999844e-05
1.6578431e-05 6e-45 1.44377e-09 1.1881799e-09 2.7552445e-09 2.6000556e-05 3.5455152e-05 1.565569e-05
6.6235756e-10 1.3501114e-11 6e-45 1.2028723e-05 6e-45 4.7827292e-14 6e-45 5.2739816e-18
1.9345402e-05 6e-45 6e-45 8.120762e-05

exp_avg_sq f4 [2, 50]
00000000: 2ce8 2138 c2b8 d738 b581 4738 cb20 792e
00000010: 7812 e937 9335 c335 2df9 2537 6404 2337
00000020: e7a8 e337 bea1 1e36 2ea7 4d2f cafd fe36
00000030: f5f8 2438 7c8d 952c 5d6e 7036 bd46 da37
00000040: 4d87 712f 1aff 0137 6d72 4938 c205 aa36
00000050: 5649 1d37 7df1 2d36 09af 2638 07bb 6237
00000060: c0e5 2d38 d7c0 4f38 187a c136 91cb 642c
00000070: a145 7a37 e78f a637 74cd 7d38 778f 3d33
00000080: dfd7 5c37 15a9 1838 4a7d 9737 bf46 1337
00000090: 18dc ca37 61c9 a537 833e 9e34 e727 a434
000000a0: 549b b530 c505 1438 8a0a c030 9b9e 9737
000000b0: 2cfd ca2c 1230 cd36 5f99 2237 68db 2c31
000000c0: 6b53 c034 266f f834 2de8 2138 c2b8 d738
000000d0: b581 4738 cb20 792e 8212 e937 9335 c335
000000e0: 2ff9 2537 6b04 2337 e7a8 e337 d5a1 1e36
000000f0: 2ea7 4d2f cefd fe36 f5f8 2438 7c8d 952c
00000100: 666e 7036 c446 da37 4d87 712f 1aff 0137
00000110: 6d72 4938 cc05 aa36 5a49 1d37 8cf1 2d36
00000120: 09af 2638 07bb 6237 c0e5 2d38 d8c0 4f38
00000130: 157a c136 99cb 642c a145 7a37 f38f a637
00000140: 76cd 7d38 778f 3d33 dad7 5c37 15a9 1838
00000150: 4b7d 9737 cc46 1337 1adc ca37 65c9 a537
00000160: 833e 9e34 e727 a434 529b b530 c505 1438
00000170: 8a0a c030 9b9e 9737 2cfd ca2c 1230 cd36
00000180: 6b99 2237 68db 2c31 6f53 c034 936f f834
3.8601618e-05 0.00010286413 4.7566096e-05 5.664517e-11 2.7784365e-05 1.4544224e-06 9.892782e-06 9.716579e-06
2.713916e-05 2.363798e-06 1.8704036e-10 7.599335e-06 3.9332506e-05 4.2505426e-12 3.5827027e-06 2.6020565e-05
2.1966891e-10 7.748395e-06 4.80287e-05 5.067065e-06 9.375004e-06 2.5919574e-06 3.97405e-05 1.3514195e-05
4.1460386e-05 4.9532242e-05 5.766062e-06 3.251375e-12 1.4917373e-05 1.9855752e-05 6.0511244e-05 4.4135472e-08
1.3163283e-05 3.6397094e-05 1.8058945e-05 8.778355e-06 2.4182766e-05 1.9763307e-05 2.9475277e-07 3.0576413e-07
1.321363e-09 3.5291323e-05 1.3972834e-09 1.807446e-05 5.769293e-12 6.115072e-06 9.691662e-06 2.5154012e-09
3.5823481e-07 4.627447e-07 3.860162e-05 0.00010286413 4.7566096e-05 5.664517e-11 2.7784383e-05 1.4544224e-06
9.892784e-06 9.716586e-06 2.713916e-05 2.3638033e-06 1.8704036e-10 7.5993366e-06 3.9332506e-05 4.2505426e-12
3.5827047e-06 2.6020578e-05 2.1966891e-10 7.748395e-06 4.80287e-05 5.0670697e-06 9.375008e-06 2.5919608e-06
3.97405e-05 1.3514195e-05 4.1460386e-05 4.9532246e-05 5.7660604e-06 3.2513768e-12 1.4917373e-05 1.9855774e-05
6.051125e-05 4.4135472e-08 1.3163279e-05 3.6397094e-05 1.8058947e-05 8.7783665e-06 2.418277e-05 1.9763314e-05
2.9475277e-07 3.0576413e-07 1.3213628e-09 3.5291323e-05 1.3972834e-09 1.807446e-05 5.769293e-12 6.115072e-06
9.691673e-06 2.5154012e-09 3.5823493e-07 4.627478e-07

exp_avg f4 [2]
00000000: e081 34b8 aa83 3438
-4.30363e-05 4.3037966e-05

exp_avg_sq f4 [2]
00000000: 7c24 fd38 8424 fd38
0.00012070776 0.00012070782
